…
2017-07-25 20:36:39.649197: I tensorflow/core/common_runtime/gpu/pool_allocator.cc:247] PoolAllocator: After 8269 get requests, put_count=8260 evicted_count=1000 eviction_rate=0.121065 and unsatisfied allocation rate=0.134115
2017-07-25 20:36:39.649224: I tensorflow/core/common_runtime/gpu/pool_allocator.cc:259] Raising pool_size_limit_ from 100 to 110
____________________________________________________________________________________________________
Layer (type)                     Output Shape          Param #     Connected to                     
====================================================================================================
dna (InputLayer)                 (None, 51, 4)         0                                            
____________________________________________________________________________________________________
dna/convolution1d_1 (Convolution (None, 41, 128)       5760        dna[0][0]                        
____________________________________________________________________________________________________
dna/activation_1 (Activation)    (None, 41, 128)       0           dna/convolution1d_1[0][0]        
____________________________________________________________________________________________________
dna/maxpooling1d_1 (MaxPooling1D (None, 10, 128)       0           dna/activation_1[0][0]           
____________________________________________________________________________________________________
dna/flatten_1 (Flatten)          (None, 1280)          0           dna/maxpooling1d_1[0][0]         
____________________________________________________________________________________________________
dna/dense_1 (Dense)              (None, 128)           163968      dna/flatten_1[0][0]              
____________________________________________________________________________________________________
dna/activation_2 (Activation)    (None, 128)           0           dna/dense_1[0][0]                
____________________________________________________________________________________________________
dna/dropout_1 (Dropout)          (None, 128)           0           dna/activation_2[0][0]           
____________________________________________________________________________________________________
cpg/1 (Dense)                    (None, 1)             129         dna/dropout_1[0][0]              
____________________________________________________________________________________________________
cpg/2 (Dense)                    (None, 1)             129         dna/dropout_1[0][0]              
____________________________________________________________________________________________________
cpg/3 (Dense)                    (None, 1)             129         dna/dropout_1[0][0]              
____________________________________________________________________________________________________
cpg/4 (Dense)                    (None, 1)             129         dna/dropout_1[0][0]              
____________________________________________________________________________________________________
cpg/5 (Dense)                    (None, 1)             129         dna/dropout_1[0][0]              
====================================================================================================
Total params: 170,373
Trainable params: 170,373
Non-trainable params: 0
____________________________________________________________________________________________________
Output statistics:
 name |  nb_tot | nb_obs | frac_obs | mean |  var
-------------------------------------------------
…
